models/centralized_model.pt (torch, 333657 bytes, 8 tensors)

fc1.weight f4 [128, 561]
-0.045613006 0.03108474 0.022584185 -0.17063719 -0.042035192 0.030416217 -0.17465599 -0.0720191
0.046398968 -0.17181498 -0.017210852 -0.015007529 0.031147903 0.039658688 -0.023062812 -0.06997732
-0.08582142 -0.034110762 0.030488858 -0.17553602 -0.08768302 -0.011529118 0.017795844 0.0029464173
-0.0227665 0.024820255 -0.00019883587 -0.0065186042 -0.058266625 -0.027276471 -0.037014507 0.05759929
-0.052575707 0.0087001305 -0.022044875 -0.070465796 0.014611791 -0.052088782 -0.11354386 0.17469452
0.36074272 -0.047256462 0.04143603 0.123441845 0.13369884 0.17513724 0.10847828 0.1404941
0.20051804 0.33485377 -0.061765164 0.013318783 0.34643036 -0.071444005 0.043151278 0.27543756
0.37414482 -0.3995641 -0.2481305 0.12453148 0.13102531 0.172987 0.12460089 0.02204948
0.15090501 -0.025750875 -0.007670206 0.004000622 -0.048599187 -0.0139647275 0.033640873 -0.046413235
0.030668454 -0.09610008 0.00065665715 -0.06986482 0.061826214 0.0564327 -0.021352332 0.038714405
0.021691645 0.023791932 0.0021888101 -0.10500935 -0.118605636 -0.031945847 -0.114933535 -0.11485917
-0.043676782 -0.093132935 -0.032444835 0.010107773 0.0056540538 -0.0065974663 0.01920907 -0.10888641
-0.04351299 -0.069016606 0.0022534735 -0.12582965 -0.10811738 -0.07218895 -0.04420003 -0.023624446
-0.10627372 0.020621845 0.03985533 0.010898896 0.015955437 0.031766504 -0.06758965 0.056307435
0.027455669 0.009294237 0.047264684 0.019290844 -0.07016426 -0.02501767 -0.11740024 0.0021803905
0.0017863861 -0.0012534879 -0.02194476 -0.024580417 -0.019277642 -0.053078994 -0.055081747 -0.04019971
-0.030916456 0.04452231 0.054701302 -0.053323008 -0.033333227 0.018241655 0.005743135 -0.06152488
-0.05092858 -0.0018655082 0.011406932 -0.1181518 -0.0724325 -0.06393179 -0.06110287 0.07377861
-0.12040924 0.044539053 -0.042261157 0.01791886 0.025232418 0.018320868 -0.023977516 -0.031307224
0.09021423 -0.01669603 0.0100213 0.055557445 -0.03184392 0.077672355 0.06167685 -0.2235112
0.0058355015 0.0037903595 0.029336758 -0.05185497 0.025516702 -0.039534632 -0.07624694 0.012996919
-0.04470523 0.004092394 0.07934947 0.0126765575 -0.007311396 0.0027951198 -0.037195012 -0.033656612
-0.02815793 0.021494705 -0.019889915 -0.082243554 -0.04332432 -0.08615641 -0.033580948 -0.046579704
0.016350051 0.014238072 -0.04511441 0.035225563 0.021379212 -0.049425416 -0.07200254 0.0007604635
-0.031640645 0.008649817 -0.043114256 0.0045540505 0.045131594 -0.042421717 0.046017278 0.013768741
-0.08682031 0.030062398 0.032865353 -0.04051998 -0.122773126 -0.07593374 -0.032598417 0.08584023
0.008099983 0.023708899 0.025844445 0.03234356 -0.046010386 -0.050483365 -0.00085895543 0.014533235
-0.057970148 -0.11995948 -0.050863847 -0.05288877 0.07979096 -0.039826132 0.006104895 -0.029259972
0.055320304 -0.031234596 -0.111163065 -0.072310284 -0.07297417 -0.037696328 -0.08622192 -0.09690081
-0.041294836 -0.054816764 -0.00028174365 -0.0012476341 0.042298473 -0.0038477248 -0.01071533 -0.053778958
0.046220627 0.035483334 0.018954314 -0.11307695 -0.06887722 -0.022918822 0.002591616 0.01166693
-0.051863447 -0.0070468565 -0.017360339 0.06160861 -0.038341977 0.05529337 0.05599913 0.07494352
00000000: b4d4 3abd 6da5 fe3c 7802 b93c 84bb 2ebe
00000010: 182d 2cbd 6e2b f93c 05d9 32be c07e 93bd
00000020: d80c 3e3d 44f0 2fbe c6fd 8cbc 24e2 75bc
00000030: e329 ff3c 2671 223d 39ee bcbc 4550 8fbd
00000040: 24c3 afbd bab7 0bbd c5c3 f93c b7bf 33be
00000050: 2893 b3bd a0e4 3cbc 97c8 913c ae18 413b
00000060: d080 babc d953 cb3c 997e 50b9 049a d5bb
00000070: fca8 6ebd e872 dfbc 869c 17bd 3ced 6b3d
00000080: a059 57bd fe8a 0e3c 7497 b4bc 5f50 90bd
00000090: 4b66 6f3c 0c5b 55bd af89 e8bd 1fe3 323e
000000a0: 45b3 b83e fe8f 41bd d4b8 293d 14cf fc3d
000000b0: 59e8 083e 2d57 333e dc29 de3d afdd 0f3e
000000c0: 9a54 4d3e f471 ab3e 78fd 7cbd 0637 5a3c
000000d0: 525f b13e 3c51 92bd 65bf 303d 2706 8d3e
000000e0: e98f bf3e aa93 ccbe ec15 7ebe 5c0a ff3d
000000f0: 802b 063e 8123 313e c02e ff3d 1ca1 b43c
00000100: d886 1a3e 80f3 d2bc 5a56 fbbb a617 833b
00000110: f10f 47bd 50cc 64bc 03cb 093d ce1b 3ebd
00000120: 693c fb3c 1ed0 c4bd 8423 2c3a 4915 8fbd
00000130: 7c3d 7d3d fa25 673d 16eb aebc ff92 1e3d
00000140: adb2 b13c 4ce7 c23c 2472 0f3b 240f d7bd
00000150: 83e7 f2bd a6d9 02bd 4662 ebbd 493b ebbd
00000160: 6de6 32bd 7bbc bebd e0e4 04bd 139b 253c
00000170: a445 b93b 8f2f d8bb 575c 9d3c d7ff debd
00000180: ad3a 32bd 9458 8dbd 03af 133b 7dd9 00be
00000190: a56c ddbd cdd7 93bd 170b 35bd 0e88 c1bc
000001a0: 09a6 d9bd 25ef a83c 583f 233d 4891 323c
000001b0: fab4 823c 981d 023d 716c 8abd a0a2 663d
000001c0: b6ea e03c db46 183c 9d98 413d d507 9e3c
000001d0: 48b2 8fbd dbf1 ccbc 896f f0bd e2e4 0e3b
000001e0: 2c25 ea3a 134c a4ba 7fc5 b3bc df5c c9bc
000001f0: 25ec 9dbc 5c69 59bd 669d 61bd 73a8 24bd
00000200: 8244 fdbc 075d 363d 790e 603d 3a69 5abd
00000210: 6c88 08bd 866f 953c e930 bc3b 8301 7cbd
00000220: 7d9a 50bd 1184 f4ba 24e4 3a3c 92f9 f1bd
00000230: 7e57 94bd acee 82bd 0147 7abd 3d19 973d
00000240: 1f99 f6bd 956e 363d 091a 2dbd 93ca 923c
00000250: 37b4 ce3c a515 963c 7f6c c4bc 013c 00bd
00000260: 3dc2 b83d 1dc6 88bc 6130 243c 3490 633d
00000270: c56e 02bd af12 9f3d dda0 7c3d 1fe0 64be
00000280: bc37 bf3b ae67 783b a453 f03c e165 54bd
00000290: 6708 d13c 11ef 21bd 5b27 9cbd 08f1 543c
000002a0: d51c 37bd 7d19 863b fa81 a23d 56b1 4f3c
000002b0: 6f94 efbb 542e 373b cc59 18bd 84db 09bd
000002c0: 76ab e6bc aa15 b03c 2df0 a2bc 4f6f a8bd
000002d0: d874 31bd c672 b0bd 2d8c 09bd 5cca 3ebd
000002e0: 8bf0 853c cd46 693c e3c9 38bd ae48 103d
000002f0: 7523 af3c 4e72 4abd 1176 93bd d759 473a
00000300: 9f99 01bd f6b7 0d3c 9398 30bd 253a 953b
00000310: e8db 383d 65c2 2dbd 9d7c 3c3d 4996 613c
00000320: d9ce b1bd 6b45 f63c d29d 063d 47f8 25bd
00000330: 7a70 fbbd 2683 9bbd eb85 05bd 01cd af3d
00000340: cbb5 043c 2a39 c23c bbb7 d33c ae7a 043d
00000350: 6375 3cbd a5c7 4ebd 862b 61ba ce1c 6e3c
00000360: 1b72 6dbd 51ad f5bd 9c56 50bd e5a1 58bd
00000370: 7169 a33d ba20 23bd 920b c83b 9cb2 efbc
00000380: 8b97 623d b2df ffbc 76a9 e3bd 6a17 94bd
00000390: 7b73 95bd 7767 1abd 1e95 b0bd ef73 c6bd
000003a0: c624 29bd 8b87 60bd feb6 93b9 a787 a3ba
000003b0: 2a41 2d3d 1c2a 7cbb 5a8f 2fbc 5347 5cbd
000003c0: d751 3d3d f956 113d 1446 9b3c e394 e7bd
000003d0: 800f 8dbd 41c0 bbbc 1ad8 293b a726 3f3c
000003e0: c46e 54bd 51e9 e6bb 4537 8ebc 4f59 7c3d
000003f0: 7a0c 1dbd 4d7b 623d 585f 653d fd7b 993d

fc1.bias f4 [128]
0.033090264 -0.012945513 -2.2771587e-12 -7.3177726e-09 -0.012176956 -1.2380689e-11 0.005252144 0.0001382468
0.020742912 0.010918464 0.0056394525 -0.041328203 -0.009750113 -0.021241672 -0.00022240811 -4.3179217e-22
-1.2731086e-12 -0.042975858 0.042832408 -0.011078584 -1.9555475e-08 9.404624e-16 7.8385767e-31 -0.0025667227
-2.7193554e-15 -0.0070434245 0.0037412334 0.035191838 -0.031381417 -2.6902454e-11 -0.013742513 -0.014739565
-0.020043427 0.006110435 0.017936775 -0.020850072 0.023601001 -0.01974142 -0.0035316427 -1.1597736e-05
-3.5425817e-19 -0.03190263 0.028263915 -1.6875448e-07 -0.0038663612 0.005496216 -0.012310101 0.010840737
-0.023197914 8.0839974e-10 -8.793585e-12 -3.8135852e-06 0.0009816104 0.0030925705 0.010004238 -0.023453023
0.022678414 0.007511321 -1.8198878e-11 -2.7025956e-10 -5.808986e-22 -0.053817406 -1.3320796e-10 -0.026086435
-0.012081124 0.0005113022 -0.0112738265 -0.046047606 5.058603e-22 0.039441396 0.0317721 -0.005682143
-8.375932e-17 -0.03220204 0.02772485 -0.016995087 -0.010311795 -0.017697576 0.023918062 0.027701152
-0.024264649 -5.8975616e-09 0.018065652 0.026427135 -0.01220795 -0.03987576 -2.750592e-12 -0.05000812
-0.0077999076 -0.00018675702 -1.6678629e-05 -3.5150733e-19 0.0046835677 -0.00062528916 -8.1704815e-10 0.0042521595
-0.033741985 -0.017634716 -0.047903847 -0.0037683886 0.022399528 -0.025086423 0.034312237 -1.3276863e-29
-0.020558573 -0.01867506 -1.53642e-14 0.0062294593 -1.4075152e-13 -0.002340157 0.013568807 -0.008849392
-6.512375e-05 -0.025759416 -0.020655712 -8.458827e-08 0.002392935 -4.526169e-22 0.0062853443 0.0072998255
-0.029918514 -0.030107742 0.014284654 -0.00044815935 -0.004974834 -0.00040004303 0.0004982507 -0.0011608062
00000000: a889 073d 6b19 54bc a53d 20ac cf6f fbb1
00000010: db81 47bc abcd 59ad 2d1a ac3b 58f6 1039
00000020: 0aed a93c 5be3 323c 28cb b83b c347 29bd
00000030: f0be 1fbc 0403 aebc 3936 69b9 4d80 029c
00000040: 922c b3ab 7407 30bd 0971 2f3d f382 35bc
00000050: f2fa a7b2 f088 8726 5960 7e0d 7636 28bb
00000060: 41f3 43a7 87cc e6bb 7b2f 753b 5125 103d
00000070: cd89 00bd f1a2 ecad 4728 61bc 377e 71bc
00000080: 1d32 a4bc 0b3a c83b 25f0 923c c5cd aabc
00000090: e356 c13c c2b8 a1bc 2273 67bb e693 42b7
000000a0: fb1d d1a0 55ac 02bd ba89 e73c e132 35b4
000000b0: c762 7dbb 9a19 b43b 4eb0 49bc 599d 313c
000000c0: 8d09 bebc 1336 5e30 c9b2 1aad e5ec 7fb6
000000d0: 61a9 803a b9ac 4a3b d1e8 233c 8e20 c0bc
000000e0: 15c8 b93c 8721 f63b 3b14 a0ad a793 94af
000000f0: da90 2f9c a46f 5cbd b576 12af 38b3 d5bc
00000100: e8ef 45bc e908 063a dbb5 38bc 6a9c 3cbd
00000110: 0ce3 181c 4d8d 213d 7623 023d 4531 babb
00000120: c722 c1a4 49e6 03bd 3a1f e33c 4839 8bbc
00000130: cef2 28bc 82fa 90bc d0ef c33c 87ed e23c
00000140: a8c6 c6bc 80a3 cab1 6bfe 933c b87d d83c
00000150: db03 48bc c454 23bd 438e 41ac 50d5 4cbd
00000160: 5e96 ffbb 35d4 43b9 15e9 8bb7 497e cfa0
00000170: 9d78 993b 72ea 23ba a796 60b0 b355 8b3b
00000180: 0935 0abd ae76 90bc d336 44bd 12f7 76bb
00000190: 377f b73c 0b82 cdbc fd8a 0c3d b5a4 868f
000001a0: 746a a8bc 70fc 98bc 6f63 8aa8 7e20 cc3b
000001b0: dd78 1eaa 525d 19bb b44f 5e3c 0afd 10bc
000001c0: 0c93 88b8 6905 d3bc 2b36 a9bc e5a6 b5b3
000001d0: cad2 1c3b 89cb 089c 4af5 cd3b 6033 ef3b
000001e0: ac17 f5bc 83a4 f6bc 2e0a 6a3c eef6 eab9
000001f0: ef03 a3bb debc d1b9 0a9d 023a 3126 98ba

fc2.weight f4 [64, 128]
-0.1593216 -0.08407875 -2.637434e-39 -2.388997e-39 -0.030179704 4.724769e-39 -0.079895794 0.13157918
0.07501807 -0.121721335 -0.1786367 -0.044783242 0.015515386 -0.019171834 4.228515e-07 7.24858e-39
-4.4088916e-05 -0.012795732 -0.24470367 0.0062609795 3.8873914e-13 4.104163e-21 -4.91161e-39 0.24920592
-4.646156e-39 -0.036279522 -0.028375939 -0.14005242 -0.16246852 -1.032899e-26 -0.0009290488 -0.2006743
-0.12169077 0.011147194 0.16342425 0.0233234 -0.014597518 -0.23198782 0.048472952 0.005749628
-1.7449038e-36 -0.12065321 0.05435104 -5.034221e-10 -0.0038442092 9.330932e-06 0.20852152 -0.044420075
-0.10481536 -1.3600031e-14 -2.23144e-39 5.8212186e-09 0.12803023 0.01863532 -0.19461721 -0.14173453
-0.10669597 -0.12224934 3.3542781e-19 3.942728e-39 -1.752639e-39 0.21307139 1.323218e-39 0.05301418
0.0072584352 0.0807176 0.024741761 0.0360411 -1.896223e-39 0.17838 -0.14672229 -0.13424166
-4.44887e-31 0.133481 0.074237086 -0.012674303 -0.085644856 0.0170549 -0.030608714 -0.054787647
0.0938454 -9.444331e-12 -0.024878833 -0.035132736 -0.054350115 0.07407388 3.142664e-39 -0.1339691
0.11578288 -0.0008699723 -2.0856812e-23 3.227511e-39 0.06356368 0.0035086772 -0.00032866874 -0.12829359
-0.10159306 0.05323459 0.055226795 -0.055614356 -0.073467635 -0.03764622 -0.030214224 -1.069007e-39
-0.036689468 0.07572428 1.5264024e-24 -0.11054866 -1.2343666e-35 -0.048131075 0.39262316 0.12024023
-0.012200963 0.0065952144 -0.09115942 7.043024e-33 0.32455978 5.515184e-39 -0.18836583 0.12523675
-0.13030332 0.06730302 0.05531176 -0.19909911 -0.0075329365 5.295908e-05 0.11193012 -0.018285567
0.0007311801 0.05970104 -2.462625e-39 4.307437e-39 0.031639826 -9.1908846e-38 0.17507312 -0.035464074
0.12973955 0.12774226 0.028008007 -0.0870308 0.025529107 -0.013178892 -5.904145e-08 1.4310903e-38
-5.339653e-39 -0.16668715 0.058320574 0.02375305 2.081511e-20 4.2192764e-07 1.010949e-39 0.14762254
-4.243649e-39 -0.0052867453 -0.03512803 0.19296868 0.024100225 -1.9924824e-27 0.008671478 0.02632469
0.24278577 0.1558531 -0.13323233 -0.04624527 0.017079901 0.07983092 0.15661629 0.0032925245
-2.1349991e-36 -0.06234564 0.023856154 -5.50835e-40 0.009990213 0.1052798 0.109196216 0.027390657
-0.12009576 5.609983e-22 4.041593e-39 -2.3301583e-08 0.10721242 -0.24283898 -0.044965684 0.12585516
0.017621133 -0.01947151 -6.026252e-39 -1.8013695e-38 -2.946882e-39 -0.07595078 -5.851293e-39 0.06927833
0.0895 0.005216375 -0.22896412 -0.08138157 -6.764007e-39 -0.18397425 0.12678415 0.17355795
6.021086e-32 -0.04817805 -0.18539135 0.009110967 0.1742366 -0.09286532 0.057525896 -0.08896583
-0.27670103 4.3724024e-11 -0.16117305 0.21673271 -0.02217581 -0.025137154 6.16427e-40 0.0100112185
-0.020320907 0.00072669884 -2.4330774e-28 -5.19837e-39 -0.040447265 0.00041424914 0.00024341488 0.09332735
0.06278461 -0.007646027 -0.07438958 0.19747724 0.072712444 -0.13378958 0.11212484 -1.443926e-39
-0.029173197 -0.15413721 -2.2577251e-05 0.0022676908 -4.1234266e-33 -0.025919758 -0.0562359 -0.12994877
0.002134559 -0.12981121 -0.05891637 2.948218e-39 -0.11371356 1.1865475e-32 0.040855415 -0.11181972
-0.12971361 -0.053827513 -0.097875975 0.26340735 -0.00572588 -0.00010317575 -0.14488268 0.009693087
00000000: 3425 23be 7b31 acbd 18b8 1c80 8d03 1a80
00000010: 6d3b f7bc bc72 3300 68a0 a3bd b1bc 063e
00000020: 13a3 993d 0949 f9bd 8aec 36be a26e 37bd
00000030: 3f34 7e3c 400e 9dbc 4504 e334 18ee 4e00
00000040: 1dec 38b8 31a5 51bc 9993 7abe e728 cd3b
00000050: 37d7 da2a 070d 9b1d 927b 3580 d62f 7f3e
00000060: 9897 3280 d699 14bd a874 e8bc e769 0fbe
00000070: 265e 26be 3496 4c94 698b 73ba 907d 4dbe
00000080: 0339 f9bd b8a2 363c b058 273e b710 bf3c
00000090: 6e2a 6fbc 378e 6dbe 938b 463d 6067 bc3b
000000a0: a470 1484 0819 f7bd 329f 5e3d 2e61 0ab0
000000b0: 21ef 7bbb 0c8c 1c37 aa86 553e d3f1 35bd
000000c0: 6fa9 d6bd 13ff 74a8 594c 1880 fb03 c831
000000d0: 5b1a 033e 19a9 983c bc49 47be db22 11be
000000e0: 6b83 dabd dd5d fabd 6b00 c620 b9ee 2a00
000000f0: a515 1380 632f 5a3e 9868 0e00 6625 593d
00000100: 2bd8 ed3b 454f a53d 3caf ca3c d59f 133d
00000110: e6a5 1480 3fa9 363e 5e3e 16be a576 09be
00000120: c45f 108d 3eaf 083e 9d09 983d e1a7 4fbc
00000130: 9266 afbd b8b6 8b3c 20bf fabc 0369 60bd
00000140: 0432 c03d 7c25 26ad b2ce cbbc 58e7 0fbd
00000150: 3a9e 5ebd 0cb4 973d 7838 2200 322f 09be
00000160: 931f ed3d da0e 64ba f7b6 c999 fd24 2300
00000170: ad2d 823d d6f1 653b 2c51 acb9 655f 03be
00000180: 0610 d0bd 830c 5a3d 7e35 623d e1cb 63bd
00000190: 3376 96bd ec32 1abd d283 f7bc f5a3 0b80
000001a0: b247 16bd 5515 9b3d 0733 ec17 5667 e2bd
000001b0: a842 8385 1725 45bd e705 c93e 8240 f63d
000001c0: 8ce6 47bc ab1c d83b cab1 babd 2447 120a
000001d0: b32c a63e 170e 3c00 f9e2 40be 103e 003e
000001e0: 3c6e 05be 2ad6 893d 968e 623d a3e0 4bbe
000001f0: dad6 f6bb 6120 5e38 9e3b e53d 9dcb 95bc
00000200: aaac 3f3a 1489 743d ccd0 1a80 62e7 2e00
00000210: c398 013d 1e33 fa81 5e46 333e c742 11bd
00000220: 72da 043e dece 023e 0c71 e53c 343d b2bd
00000230: 6b22 d13c 48ec 57bc c394 7db3 fad4 9b00
00000240: c824 3a80 09b0 2abe 8ee1 6e3d c295 c23c
00000250: d997 c41e 4b85 e234 1d02 0b00 5d2a 173e
00000260: 9135 2e80 6f3c adbb 69e2 0fbd 9599 453e
00000270: d66d c53c 58dc 1d93 d112 0e3c e0a6 d73c
00000280: d59c 783e f497 1f3e 0e6e 08be ae6b 3dbd
00000290: 26eb 8b3c 657e a33d 0560 203e 65c7 573b
000002a0: 2aa0 3584 245e 7fbd fb6d c33c 81ff 0580
000002b0: fead 233c f09c d73d 44a2 df3d 5f62 e03c
000002c0: c4f4 f5bd 248d 291c 5102 2c00 b928 c8b2
000002d0: 2f92 db3d c8aa 78be f02d 38bd 2de0 003e
000002e0: 325a 903c b782 9fbc bd9e 4180 da26 c480
000002f0: b516 2080 158c 9bbd 06b7 3f80 cce1 8d3d
00000300: c74b b73d 20ee aa3b 9275 6abe 61ab a6bd
00000310: 4da7 4980 bf63 3cbe b4d3 013e 2db9 313e
00000320: fb50 9c0b 5956 45bd 3bd7 3dbe 2a46 153c
00000330: 146b 323e 2c30 bebd 46a0 6b3d b833 b6bd
00000340: c2ab 8dbe e04c 402e 8c0a 25be 2eef 5d3e
00000350: 0baa b5bc 6fec cdbc 59b6 0600 1806 243c
00000360: 0878 a6bc ef7f 3e3a f036 9a91 f19a 3880
00000370: 08ac 25bd 942f d939 2f3d 7f39 6922 bf3d
00000380: 3895 803d 868b fabb 9059 98bd 7937 4a3e
00000390: 43ea 943d 2300 09be b5a1 e53d 14b9 0f80
000003a0: a1fc eebc 25d6 1dbe 4764 bdb7 8a9d 143b
000003b0: cb47 ab89 ac55 d4bc 9d57 66bd 4a11 05be
000003c0: f5e3 0b3b 3bed 04be 4b52 71bd 6f1a 2000
000003d0: a8e2 e8bd b06f 760a 0258 273d bd01 e5bd
000003e0: a5d3 04be 3d7a 5cbd 3373 c8bd 54dd 863e
000003f0: 2aa0 bbbb 0f60 d8b8 205c 14be c1cf 1e3c

fc2.bias f4 [64]
0.15540515 -0.024153871 0.10570161 -0.093298554 0.042687837 0.15280369 0.005901166 -0.033270612
0.012299739 0.11716807 -0.019003889 0.021046238 0.054723725 0.13448153 0.03935909 0.004458965
0.014436717 -0.004961736 0.017503437 0.030953877 0.008732598 -0.035858393 -0.0015828278 0.23364921
0.04922024 0.053123713 0.073256426 0.08844789 0.059949227 0.11728363 -0.03229793 -0.004368095
0.1628639 -0.018668527 -0.19337368 -0.05376024 0.005211506 -0.010367005 0.0006236225 0.055427838
-0.07849228 0.1964122 0.10661164 -0.018046848 0.10275821 -0.064487316 0.05976141 0.06515475
0.11170053 0.0026056815 -0.060278952 0.10271939 -0.028181007 0.03685241 0.1503689 0.117232256
0.046079822 0.0030761703 0.08770546 0.023711199 -0.028859448 0.02957842 -0.0012703644 0.14593121
00000000: 8722 1f3e 57de c5bc 167a d83d 5013 bfbd
00000010: 71d9 2e3d 9278 1c3e 915e c13b c446 08bd
00000020: d884 493c d0f5 ef3d 0bae 9bbc 2969 ac3c
00000030: fc25 603d 87b5 093e ff36 213d 821c 923b
00000040: fb87 6c3c 0f96 a2bb 5e63 8f3c fc92 fd3c
00000050: 2c13 0f3c 40e0 12bd e376 cfba bd41 6f3e
00000060: 2a9b 493d 4098 593d 7707 963d 2b24 b53d
00000070: 528d 753d 6632 f03d d64a 04bd 3d22 8fbb
00000080: cbc5 263e bdee 98bc c003 46be b333 5cbd
00000090: 48c5 aa3b 5fda 29bc 997a 233a 4d08 633d
000000a0: 8fc0 a0bd 4820 493e 3457 da3d fcd6 93bc
000000b0: e572 d23d ed11 84bd 61c8 743d db6f 853d
000000c0: 3fc3 e43d 15c4 2a3b 10e7 76bd 8b5e d23d
000000d0: dbdb e6bc 8df2 163d 4efa 193e 7717 f03d
000000e0: 32be 3c3d 9399 493b ec9e b33d fd3d c23c
000000f0: a66a ecbc 714e f23c 5b82 a6ba fe6e 153e

fc3.weight f4 [32, 64]
-0.099634975 0.2565271 -0.11328641 0.13351537 0.124722935 -0.046631973 -0.09705336 0.27238485
-0.1829643 0.059985116 0.1025886 -0.039617017 -0.15472704 0.0895087 -0.028323969 0.26152417
-0.19293943 -0.00018236543 0.01014391 -0.090488456 -0.020054733 0.23063572 0.14872661 -0.103806265
-0.14892079 0.05694512 -0.010070658 0.08655432 0.081568316 0.04831039 0.18443096 0.113062404
-0.18215007 0.009520298 0.22032295 0.115372494 0.112383656 0.03597219 -0.022282163 -0.0067541744
0.24598636 -0.07593727 0.0101465285 0.16724756 0.07157064 0.21508273 -0.06954158 -0.23563598
-0.16924423 0.052134085 0.28465605 -0.02521929 0.24664807 -0.08525205 -0.08833109 0.07740975
-0.055345636 -0.054818537 -0.08952278 0.095960476 0.3254669 -0.120822564 0.06483692 0.063970216
0.10424071 -0.19885378 0.28774282 -0.11499826 -0.21351427 0.08415843 0.260691 -0.07200767
0.1401312 -0.010614977 0.062319968 0.15433024 0.29764807 -0.08180985 -0.08748404 -0.22894436
0.36079392 -0.0064132344 0.09988312 0.11584263 0.051181152 -0.2509799 -0.1528032 0.24762726
0.10624062 0.09121499 -0.077894926 -0.016918633 0.1493922 0.025054391 -0.1566768 0.029443216
0.14734443 -0.0715373 -0.04838894 -0.22400917 0.13666804 -0.044209026 -0.048867952 -0.19536227
-0.11339913 0.1574518 0.2521401 -0.23213737 -0.035773322 -0.28423014 0.04718362 0.22273622
0.3115264 -0.14368518 -0.23344703 -0.09024148 -0.13186362 -0.015098067 0.096796885 0.19836447
0.015596115 -0.008576489 -0.022184711 -0.1545757 -0.14866738 0.18472424 -0.032304067 0.04026792
0.07460033 -0.17913142 0.258702 -0.07226645 -0.12784201 0.06463926 0.24371712 -0.14290062
0.11335957 0.03530195 -0.045215365 0.13813029 0.2567222 -0.054424144 -0.12257952 -0.26103488
0.39655787 -0.0025216818 0.0045180293 0.17711677 -0.040669486 -0.33443892 0.01930416 0.17226703
-0.030179009 -0.010460585 -0.097820245 -0.11111431 0.05698881 -0.16040406 -0.18781003 0.03180476
0.1271774 -0.017567407 -0.01639653 -0.21932527 0.05693709 -0.0015760673 -0.020891195 -0.100072674
-0.19519545 0.058377605 0.18128416 -0.22157976 -0.0065123946 -0.24688178 -0.05996663 0.27798942
0.17681462 -0.015033764 -0.22842614 -0.003231067 -0.22184949 0.10280924 0.04315496 0.16567983
0.08104597 0.042251807 0.022765966 -0.17225283 -0.22258699 0.29068667 0.039387185 0.09564648
-0.22069325 0.020724151 0.22414435 -0.23469013 -0.059163976 -0.12064408 0.13211194 -0.014029739
0.18913682 0.36327893 0.12911333 0.0707094 -0.057029903 0.077879325 -0.0094302185 -0.016712919
0.17558736 3.0253308e-05 0.08315717 0.22800465 0.24849264 -0.039530106 -0.05008796 3.0741416e-05
-0.01378527 0.20969056 0.10293905 -0.10523219 0.047836788 0.051319025 -0.061252672 0.19528419
-0.006239977 0.101350784 -0.16780421 -0.11134664 -0.21651378 0.25323722 0.21915911 -0.060287166
-0.06680411 -0.020195814 0.2621447 0.028524794 -0.18819928 -0.012593168 0.23440345 0.044138327
0.28122607 -0.09957606 0.03604925 0.10661073 -0.04039424 -0.22993685 0.07568946 0.026830364
-0.07310121 0.12699503 0.01891102 -0.12010423 -0.04964865 0.09106597 0.28096813 -0.100772806
00000000: 6c0d ccbd 8557 833e b502 e8bd 41b8 083e
00000010: bd6e ff3d 2b01 3fbd e9c3 c6bd 0776 8b3e
00000020: fe5a 3bbe f4b2 753d f919 d23d 7445 22bd
00000030: c470 1ebe 5650 b73d ab07 e8bc 7fe6 853e
00000040: ea91 45be 5939 3fb9 a432 263c 0352 b9bd
00000050: d349 a4bc c52b 6c3e ca4b 183e 6198 d4bd
00000060: b17e 18be 493f 693d 67ff 24bc 6443 b13d
00000070: 4a0d a73d 1ee1 453d 78db 3c3e 438d e73d
00000080: 8c85 3abe 06fb 1b3c 579c 613e 6a48 ec3d
00000090: 6729 e63d 9357 133d 1589 b6bc 1f52 ddbb
000000a0: d9e3 7b3e 0085 9bbd a03d 263c f242 2b3e
000000b0: a193 923d a63e 5c3e d16b 8ebd 8f4a 71be
000000c0: 5c4e 2dbe 8d8a 553d 70be 913e af98 cebc
000000d0: 5091 7c3e a098 aebd eee6 b4bd 0189 9e3d
000000e0: 1bb2 62bd 6789 60bd b857 b7bd ed86 c43d
000000f0: 99a3 a63e d271 f7bd 38c9 843d d102 833d
00000100: 277c d53d 53a0 4bbe 0753 933e 3584 ebbd
00000110: 7ca3 5abe 415b ac3d 4a79 853e c278 93bd
00000120: 8e7e 0f3e 71ea 2dbc 3943 7f3d bf08 1e3e
00000130: 5465 983e ec8b a7bd d52a b3bd 6470 6abe
00000140: fbb9 b83e 1c26 d2bb 858f cc3d e73e ed3d
00000150: 54a3 513d 7080 80be 7178 1cbe 0092 7d3e
00000160: af94 d93d edce ba3d 6087 9fbd f298 8abc
00000170: 45fa 183e de3e cd3c e26f 20be e632 f13c
00000180: 75e1 163e 2682 92bd 7b33 46bd a962 65be
00000190: b5f2 0b3e 8614 35bd c329 48bd 0c0d 48be
000001a0: ce3d e8bd 0b3b 213e 8218 813e 6bb5 6dbe
000001b0: 0c87 12bd 9d86 91be 9d43 413d f714 643e
000001c0: 6380 9f3e 3522 13be bd0c 6fbe 86d0 b8bd
000001d0: 4207 07be e25d 77bc 723d c63d 0e20 4b3e
000001e0: d986 7f3c 6784 0cbc b6bc b5bc 1849 1ebe
000001f0: 433c 18be 5a28 3d3e 4551 04bd f9ef 243d
00000200: 0fc8 983d 3a6e 37be 9774 843e 6f00 94bd
00000210: 04e9 02be 9761 843d fb90 793e 8a54 12be
00000220: 1029 e83d c798 103d bf33 39bd 0772 0d3e
00000230: 1871 833e daeb 5ebd f90a fbbd 5da6 85be
00000240: a209 cb3e cd42 25bb fa0b 943b 195e 353e
00000250: 0c95 26bd 943b abbe c223 9e3c c566 303e
00000260: f839 f7bc e062 2bbc fb55 c8bd e68f e3bd
00000270: 196d 693d f640 24be 4651 40be b545 023d
00000280: cb3a 023e 86e9 8fbc 0452 86bc ce96 60be
00000290: de36 693d 0b94 ceba 0324 abbc e7f2 ccbd
000002a0: 51e1 47be 5b1d 6f3d 8ea2 393e cee5 62be
000002b0: ed65 d5bb 94ce 7cbe 929f 75bd a154 8e3e
000002c0: e40e 353e 2d50 76bc 8be8 69be 4fc0 53bb
000002d0: 832c 63be a78d d23d 41c3 303d f9a7 293e
000002e0: 6efb a53d 3b10 2d3d b17f ba3c 0c63 30be
000002f0: d8ed 63be e2d4 943e 7554 213d 4de2 c33d
00000300: 69fd 61be b2c5 a93c 1986 653e 9c52 70be
00000310: ed55 72bd 3e14 f7bd 5a48 073e fedc 65bc
00000320: 15ad 413e b2ff b93e 4936 043e 17d0 903d
00000330: 3098 69bd 327f 9f3d 3481 1abc 88e9 88bc
00000340: 2ccd 333e 7cc8 fd37 4e4e aa3d 0d7a 693e
00000350: db74 7e3e 52ea 21bd 0829 4dbd 58f0 0038
00000360: 9ddb 61bc 1fb9 563e b5d1 d23d f983 d7bd
00000370: 82f0 433d e633 523d 15e4 7abd 94f8 473e
00000380: b978 ccbb 0091 cf3d ded4 2bbe b509 e4bd
00000390: cab5 5dbe 4fa8 813e 3f6b 603e adef 76bd
000003a0: 98d0 88bd b171 a5bc d537 863e d4ac e93c
000003b0: 50b7 40be 9353 4ebc 7507 703e 64ca 343d
000003c0: ddfc 8f3e 89ee cbbd 61a8 133d ba56 da3d
000003d0: 6e74 25bd 9174 6bbe 1303 9b3d 5acb db3c
000003e0: 16b6 95bd fc0a 023e 49eb 9a3c 35f9 f5bd
000003f0: 625c 4bbd cc80 ba3d 0edb 8f3e f961 cebd

fc3.bias f4 [32]
0.019206494 0.18961258 0.10325301 0.12926733 0.10881892 0.17897597 0.21647 0.1310438
0.2325175 0.04877423 -0.04722291 0.050796025 0.24940442 0.05785945 0.08526082 0.005944587
0.31449124 -0.05067292 0.024578799 0.13513008 0.12702903 0.071811765 -0.026702072 -0.09379512
0.18266803 0.21667255 0.18851775 0.121584415 0.041613583 -0.04902086 -0.018788388 0.15023442
00000000: f056 9d3c cd29 423e 5076 d33d a85e 043e
00000010: 74dc de3d 7a45 373e 50aa 5d3e 5930 063e
00000020: 1119 6e3e 7dc7 473d cf6c 41bd 7e0f 503d
00000030: df63 7f3e 08fe 6c3d 3a9d ae3d cfca c23b
00000040: ff04 a13e 688e 4fbd 7a59 c93c 8a5f 0a3e
00000050: e613 023e 0c12 933d 4ebe dabc a817 c0bd
00000060: 540d 3b3e 69df 5d3e cc0a 413e 4001 f93d
00000070: 0173 2a3d 19ca 48bd 1bea 99bc 0dd7 193e

fc4.weight f4 [6, 32]
-0.2125653 0.16029854 0.14941435 0.11390316 0.32670784 0.0069397436 0.22238678 0.21050921
-0.56723833 -0.4504373 -0.3532266 0.038481556 0.11412757 -0.31252563 -0.41600093 0.3028039
0.12739897 -0.4543644 -0.32586578 -0.23414038 -0.036844578 0.079929054 -0.4143968 -0.3360067
-0.46738052 0.2820762 -0.30293486 -0.679839 0.027440013 0.0647796 -0.35315126 0.12508297
-0.3527129 0.14215435 0.20817174 -0.21588539 -0.093621835 -0.116592556 0.24279988 -0.4520471
0.018322326 -0.4285381 -0.29647118 0.21194264 0.14348601 -0.36221856 -0.34586176 -0.008222835
0.06823627 0.22389425 -0.28239545 0.1859369 0.29231596 -0.058925167 0.036963228 -0.23050113
-0.37096348 0.08514985 0.212359 0.020530017 -0.6228824 -0.2809999 -0.4392705 -0.13352656
-0.008036688 -0.3277965 -0.24909924 -0.29240882 -0.1515955 0.048091102 -0.08635961 -0.2653878
-0.354509 -0.36662644 0.22136085 -0.15893978 0.16444145 0.07345426 -0.29001197 -0.20046398
0.13206479 -0.22023915 0.060207315 0.1853039 -0.13372634 -0.5123623 0.15053055 -0.33118424
-0.21975465 -0.18850605 0.22910666 -0.3165877 -0.3201481 0.113401614 -0.34856796 0.1522427
0.17986976 -0.33032382 -0.27685407 0.09351575 -0.19598477 -0.6502716 -0.27511385 0.14423335
0.05890762 0.097159915 -0.21092239 0.16642386 -0.45710626 0.1354836 0.16863161 -0.22082925
-0.54295117 0.14580095 0.1990221 -0.29681507 -0.22140796 0.1830241 -0.29743373 0.1666245
0.19548917 -0.46291038 -0.19518438 0.055205446 0.15943177 -0.37822786 -0.10743673 -0.37540784
-0.073336974 0.19751714 0.21765149 0.12903975 0.30281943 -0.78188413 -0.5386088 -0.047612492
0.060642947 0.11453253 -0.103723206 0.18625613 -0.48768082 -0.2182569 0.16654651 -0.43531525
-0.6118474 -0.26284918 -0.09898622 -0.3423974 -0.40128687 0.16955705 -0.7170159 -0.24782811
0.19667424 -0.44591132 -0.46432754 -0.002976911 -0.06062228 0.08864725 0.20786086 0.0775756
0.23501383 -0.5525034 -0.5242859 -0.62599665 -0.29273963 -0.1378564 -0.29678798 0.19666594
-0.01530331 -0.44702595 0.23422956 -0.5668486 0.0043855794 0.14932667 -0.27592865 0.27705303
-0.028053464 0.21503347 0.20544301 -0.34305987 -0.34293687 -0.32019314 0.12959334 0.21497925
-0.28442413 -0.20325896 -0.3903493 0.073883735 0.15370263 -0.7300359 -0.031162275 -0.668396
00000000: b8aa 59be 4d25 243e 1300 193e 0f46 e93d
00000010: 4046 a73e ca66 e33b 5cb9 633e ba8f 573e
00000020: 8836 11bf b89f e6be 1eda b4be d69e 1d3d
00000030: b7bb e93d 5c03 a0be 13fe d4be 1d09 9b3e
00000040: e074 023e 73a2 e8be e1d7 a6be 7fc2 6fbe
00000050: 57ea 16bd d8b1 a33d d12b d4be 1209 acbe
00000060: 804c efbe 4b6c 903e 471a 9bbe ee09 2ebf
00000070: e1c9 e03c 2bab 843d 3ed0 b4be c015 003e
00000080: c996 b4be e990 113e f92a 553e 0f11 5dbe
00000090: cebc bfbd 14c8 eebd 88a0 783e b872 e7be
000000a0: b418 963c 5969 dbbe 12cb 97be 7e07 593e
000000b0: ffed 123e b674 b9be cb14 b1be 12b9 06bc
000000c0: 75bf 8b3d 8944 653e 2396 90be 3e66 3e3e
000000d0: 70aa 953e 845b 71bd c166 173d 7d08 6cbe
000000e0: edee bdbe 0b63 ae3d a374 593e 912e a83c
000000f0: 3975 1fbf 38df 8fbe 10e8 e0be 30bb 08be
00000100: 50ac 03bc f1d4 a7be df13 7fbe 9cb6 95be
00000110: da3b 1bbe 2dfb 443d 4fdd b0bd e9e0 87be
00000120: 3482 b5be 76b6 bbbe 6bac 623e 1cc1 22be
00000130: 5763 283e 306f 963d 737c 94be 6e46 4dbe
00000140: fe3b 073e 5f86 61be f29b 763d 4ec0 3d3e
00000150: 8fef 08be 2d2a 03bf ae24 1a3e fb90 a9be
00000160: 5d07 61be bb07 41be f09a 6a3e c817 a2be
00000170: 74ea a3be 1b3f e83d 8077 b2be 83e5 1b3e
00000180: c72f 383e 3420 a9be d1bf 8dbe 2f85 bf3d
00000190: 3bb0 48be 3378 26bf b9db 8cbe e8b1 133e
000001a0: 1e49 713d c7fb c63d 0afc 57be 046b 2a3e
000001b0: d509 eabe 36bc 0a3e c4ad 2c3e 1021 62be
000001c0: d9fe 0abf d84c 153e 73cc 4b3e 25f8 97be
000001d0: c5b8 62be ab6a 3b3e 3c49 98be 9d9f 2a3e
000001e0: 502e 483e 9702 edbe 6ade 47be 1b1f 623d
000001f0: 1542 233e 15a7 c1be ca07 dcbd 7535 c0be
00000200: b231 96bd ef41 4a3e 08e0 5e3e ff22 043e
00000210: 260b 9b3e 8f29 48bf 44e2 09bf 5105 43bd
00000220: bd64 783d 0890 ea3d d56c d4bd edb9 3e3e
00000230: 4db1 f9be bd7e 5fbe 2b8b 2a3e a4e1 debe
00000240: 08a2 1cbf 2b94 86be 4ab9 cabd b64e afbe
00000250: 7975 cdbe 5da0 2d3e 5b8e 37bf a7c6 7dbe
00000260: f964 493e 7d4e e4be 57bc edbe 4718 43bb
00000270: 114f 78bd b08c b53d 7ad9 543e f5df 9e3d
00000280: 77a7 703e dd70 0dbf 9a37 06bf 5141 20bf
00000290: f8e1 95be 3a2a 0dbe 98f4 97be cc62 493e
000002a0: bcba 7abc 96e0 e4be e0d9 6f3e fd1c 11bf
000002b0: e8b4 8f3b 17e9 183e 8546 8dbe e5d9 8d3e
000002c0: 61d0 e5bc bc31 5c3e a75f 523e 8ba5 afbe
000002d0: 6c95 afbe 5bf0 a3be 1eb4 043e 8523 5c3e
000002e0: 0aa0 91be 1e23 50be dddb c7be 5b50 973d
000002f0: 3964 1d3e a2e3 3abf 0748 ffbc 001c 2bbf

fc4.bias f4 [6]
-0.019817503 0.04718217 -0.034345698 0.031436034 0.11672563 -0.31350636
00000000: 5158 a2bc 1742 413d 13ae 0cbd 12c3 003d
00000010: d90d ef3d e883 a0be
