models/federated_nodp_model.pt (torch, 333699 bytes, 8 tensors)

fc1.weight f4 [128, 561]
0	0x3c210b3c	0.009829339
1	0xbd1b2d55	-0.03788503
2	0xbc951080	-0.018196344
3	0xbca9a044	-0.020706303
4	0x3d2ce7cb	0.042213243
5	0x3da25c80	0.07927799
6	0xbba3b24f	-0.0049956213
7	0x3dc2b9a0	0.095080614
8	0x3d5ef652	0.054434128
9	0x3bc82ab3	0.006108606
10	0x3d0b2857	0.033974018
11	0x3ce15886	0.027508032
12	0xbd04fdb1	-0.0324685
13	0xbd69de02	-0.05709649
14	0xbc1d91db	-0.009617294
15	0x3d233377	0.039844003
16	0xbdb617d2	-0.08891262
17	0x3d42d14b	0.04756288
18	0x3d91d3c9	0.07120473
19	0x3c5bccc2	0.013415517
20	0x3dce5e73	0.100766085
21	0x3d6dec69	0.058086786
22	0x3d638db3	0.055555057
23	0xbcb5f6b3	-0.022212362
24	0xbc9edf4c	-0.019393586
25	0xbd675841	-0.05648065
26	0xbcd3da7c	-0.025861017
27	0xbbab8ce1	-0.0052353
28	0xbb8642c1	-0.004097313
29	0xbd7c6f39	-0.061629508
30	0x39b7627c	0.00034977857
31	0xbd43b781	-0.047782425
32	0x3c711d04	0.0147163905
33	0xbd208f4f	-0.03919917
34	0x3c66e544	0.014092747
35	0xbd317911	-0.04332835
36	0x3d04ba27	0.03240409
37	0xbd466b64	-0.04844226
38	0xbd059bc3	-0.03261925
39	0xbcbfcb26	-0.023412298
40	0x3ce9a5a0	0.028521359
41	0xbdccd17b	-0.10000893
42	0xbd5ed3ad	-0.05440109
43	0xbc1a5946	-0.0094206985
44	0xbce46ee4	-0.027884908
45	0xbd431ced	-0.047635008
46	0xbc208d82	-0.009799363
47	0xbcf24295	-0.029572764
48	0xbd55fb34	-0.05224152
49	0xbbd33e71	-0.0064466526
50	0xbdea27c6	-0.114333674
51	0xbd1ba189	-0.03799585
52	0xbc22afd1	-0.009929613
53	0xbda715cd	-0.08158455
54	0xbd3515a3	-0.044210088
55	0x3e467084	0.19378859
56	0x3bbf39b5	0.0058357366
57	0x3e372911	0.1788676
58	0x3c1a7a95	0.00942864
59	0xbc5eae40	-0.013591349
60	0xbd0734db	-0.03300939
61	0xbd182eeb	-0.03715412
62	0x3e681271	0.22663285
63	0xbbe680f7	-0.007034417
64	0xbc83faff	-0.016110895
65	0x3b351530	0.0027631037
66	0x3c002df7	0.007823459
67	0xbcac2c60	-0.021017253
68	0xbcfa6136	-0.030563932
69	0xbd8f0eb5	-0.06985227
70	0x3cb85629	0.022502022
71	0xbdabfe97	-0.083981685
72	0x3c992d84	0.018698461
73	0xbdc21125	-0.09475926
74	0x3c848d62	0.016180698
75	0xbda10950	-0.07863104
76	0xbc090e14	-0.008365173
77	0x3c01caab	0.007921855
78	0x3cc93e7c	0.024565928
79	0xbd1c9166	-0.0382246
80	0xbcb6ee7e	-0.022330519
81	0xbba53f37	-0.005042936
82	0x3a98866f	0.0011636744
83	0xbaa4cbfd	-0.0012573
84	0xbb68d04d	-0.0035524548
85	0xbc553bf5	-0.013014783
86	0xbb85cea5	-0.004083472
87	0x3d5da5c3	0.05411316
88	0xbd3c51d5	-0.04597648
89	0xbdda0c02	-0.106468216
90	0xbd46fcbe	-0.048580877
91	0xbd6fc546	-0.058537744
92	0xbd51177e	-0.051047795
93	0xbd420101	-0.04736424
94	0x3c7788ae	0.015108271
95	0x3c8bb362	0.01705331
96	0xbd35ef05	-0.0444174
97	0xbca91e51	-0.020644339
98	0xbd683fe9	-0.056701574
99	0xbb925acd	-0.0044663907
100	0x3d9ee413	0.077583455
101	0xbc40c912	-0.011766689
102	0x3d92268f	0.07136261
103	0x3c8c0187	0.017090572
104	0x3bd412c0	0.0064719617
105	0xbcdb96b3	-0.026805257
106	0x3b94a353	0.0045360713
107	0xbd478f01	-0.048720364
108	0xbbc783c6	-0.0060887067
109	0xbd319251	-0.04335243
110	0x3bb81d44	0.005618723
111	0xbcbbce82	-0.022925619
112	0xbd266f91	-0.04063374
113	0xbd53d766	-0.05171909
114	0xbccdf480	-0.025141
115	0xbd770986	-0.060311817
116	0xbcbd0caf	-0.023077337
117	0xbdba2af3	-0.09090223
118	0xbd011e29	-0.031522904
119	0x3d3ec869	0.046577845
120	0xbbfa1399	-0.0076317308
121	0xbd250364	-0.040286437
122	0xbd2dcc8b	-0.042431396
123	0x3b824c0c	0.0039763507
124	0x3dc2c584	0.09510329
125	0x3d90c23a	0.07068296
126	0x3c4e394f	0.012586906
127	0x3df95ce1	0.12175918
128	0x3db44ac2	0.088033214
129	0x3cdbdcb6	0.026838642
130	0x3d372330	0.04471129
131	0x3d25f26a	0.040514387
132	0x3d208c9a	0.039196588
133	0xbd4ac5a2	-0.049504884
134	0x3c6795eb	0.014134864
135	0x3d8c9891	0.06865037
136	0xbd39886d	-0.04529612
137	0x3dd7f5b9	0.10544915
138	0x3dafd977	0.085864
139	0x3c7d814b	0.01547272
140	0x3ddebf02	0.108762756
141	0x3e01e547	0.12685119
142	0xbcf615fb	-0.030039778
143	0xbd66510b	-0.056229632
144	0x3bf77f3f	0.0075530107
145	0xbceab3ee	-0.02865025
146	0x3cbda6d6	0.023150843
147	0x3b940fe4	0.004518496
148	0xbd52bbb1	-0.051448528
149	0xbd31084b	-0.0432208
150	0x3c760a49	0.015017101
151	0xbc1763d3	-0.009240109
152	0xbcbdcea2	-0.02316982
153	0xbc3001a6	-0.0107425805
154	0x3c8e9912	0.017406974
155	0x3b837735	0.0040120133
156	0xbc9b1f9b	-0.01893597
157	0xbb146849	-0.0022645167
158	0xbc27ad87	-0.010234243
159	0x3dafab15	0.08577553
160	0x3c803aa4	0.015652962
161	0xbcf91ed5	-0.03041021
162	0x3b9b92fa	0.0047477456
163	0xbc161487	-0.009160168
164	0xbc3964d6	-0.011315545
165	0xbd7dcea6	-0.061964653
166	0xbb4905b3	-0.0030673563
167	0x3a93125c	0.0011220681
168	0xbd26d0a2	-0.04072631
169	0x3b950e5b	0.0045488304
170	0x3c96a632	0.018389795
171	0xbdc6c361	-0.09705234
172	0x3cd83671	0.026393147
173	0xbcaf0855	-0.021366278
174	0x3c18261c	0.00928643
175	0xbcb878be	-0.022518512
176	0xbbe127ed	-0.0068712146
177	0xbcb76622	-0.022387568
178	0xbdc6ead5	-0.097127594
179	0x3d140877	0.036140885
180	0xb9eb40f1	-0.00044871078
181	0xbcdcfa2f	-0.026974766
182	0xbc08b024	-0.008342776
183	0xbc8a35fa	-0.016871441
184	0x3c977b6e	0.018491473
185	0x396582be	0.00021887847
186	0x3c65708a	0.014003882
187	0x39fea36c	0.00048568414
188	0xbc7eb88f	-0.015546932
189	0xbd7e1da6	-0.062039994
190	0x3bd816f6	0.006594534
191	0xbbe40ee0	-0.006959781
192	0xbc06c213	-0.008224982
193	0x3c9844ef	0.018587558
194	0xbcc9093d	-0.024540538
195	0xbc120d97	-0.008914373
196	0xbc4eaad5	-0.012613972
197	0xb954eb1e	-0.00020305483
198	0xbd7aaead	-0.06120174
199	0x3c11c80b	0.008897792
200	0x3cd061a6	0.025437187
201	0xbd642829	-0.055702362
202	0xbd10f390	-0.03538853
203	0xbcc21d3f	-0.023695586
204	0x3d2227a9	0.039588604
205	0xbad2241f	-0.0016032493
206	0xbd15c921	-0.036568765
207	0xbc922c31	-0.017843338
208	0x3d279504	0.040913597
209	0x3d1810f1	0.03712553
210	0xbce1b3d0	-0.027551562
211	0xbc6786b1	-0.014131234
212	0x3a9af329	0.0011821735
213	0x3bed9b4a	0.007251178
214	0xbd14251a	-0.036168195
215	0xbd4a7d1d	-0.049435724
216	0xbcbaa96d	-0.022785867
217	0x3d2c3d42	0.042050608
218	0x3b1950b2	0.0023394045
219	0xbce1d7c4	-0.027568705
220	0xbcb09f82	-0.021560434
221	0x3c9773b6	0.018487792
222	0xbc6adae7	-0.014334417
223	0xbd090ed5	-0.03346141
224	0x3bad97c9	0.005297635
225	0x3a2beddf	0.0006558578
226	0x3c09a4c1	0.008401097
227	0x3b83b713	0.004019627
228	0xbd5b8e8d	-0.053602744
229	0x3cc9f946	0.024654996
230	0x3d92dacd	0.07170639
231	0xbb39e1c9	-0.0028363338
232	0xbd1c5c02	-0.038173683
233	0xbd7aaec4	-0.061201826
234	0x3c26c6b3	0.0101792095
235	0x3c48359e	0.012219815
236	0x3ce32b8f	0.027730731
237	0xbd3731d5	-0.044725258
238	0x3c883ffb	0.01663207
239	0x3d3b6d69	0.04575864
240	0xbba26292	-0.004955598
241	0x3c7fbc13	0.015608805
242	0x3bcc645c	0.0062375497
243	0x3d6cbdd1	0.05779821
244	0x3d6c4371	0.057681505
245	0x3d454acb	0.04816703
246	0x3ce70795	0.028201858
247	0xbbbfbd6f	-0.0058514397
248	0xbced23fc	-0.028947823
249	0x3d450ccc	0.048107907
250	0xbcd25afc	-0.02567815
251	0xbca56e7e	-0.020194288
252	0xbc860bf3	-0.01636312
253	0xbc9a57d9	-0.018840717
254	0xbd1ecabb	-0.038767558
255	0xbcd78dc0	-0.026312709

fc1.bias f4 [128]
0	0xbbee3f9e	-0.0072707674
1	0x3b4c68ae	0.0031190324
2	0xbc0d7c57	-0.008635602
3	0xbb9ba9f9	-0.004750487
4	0xbc068341	-0.008210004
5	0xbc7d099f	-0.015444188
6	0xbbc8167b	-0.0061061955
7	0x3c9e25c4	0.019305117
8	0xbb81f595	-0.0039660432
9	0x3cf284fc	0.029604428
10	0xbbc05b89	-0.005870287
11	0x3bfe09c0	0.007752627
12	0xbb8feeea	-0.0043924944
13	0x3cbe9bde	0.023267683
14	0xbb0fd862	-0.0021949043
15	0xbb1b567c	-0.0023702672
16	0xbb6aeb4c	-0.0035845814
17	0x3cfbaf4e	0.03072324
18	0xbca8278d	-0.020526672
19	0x3c45e9ae	0.012079639
20	0xbba4557b	-0.005015073
21	0x3c0f2e40	0.008739054
22	0xbcdc8f13	-0.026923692
23	0xbb83d7c1	-0.0040235226
24	0xbba4a204	-0.0050241966
25	0xbc8beb57	-0.017079992
26	0xbb6bf0cf	-0.0036001687
27	0x3ce4b564	0.027918525
28	0x3ceab5b5	0.028651098
29	0xbcf7db41	-0.030255916
30	0xbb745e1c	-0.003728754
31	0xbd053f1d	-0.032530893
32	0xbb6c47a7	-0.003605345
33	0xbbf78d3b	-0.007554678
34	0xbb83a7a9	-0.0040177894
35	0x3bac1b52	0.0052522803
36	0xbb0df21e	-0.0021659206
37	0xbd1a48a0	-0.037666917
38	0xbb85d362	-0.0040840367
39	0xbbd77e27	-0.006576318
40	0xb9cf5164	-0.00039542757
41	0xbc42caa2	-0.011889132
42	0xba596057	-0.0008292249
43	0xbc1cee37	-0.009578279
44	0x3ac66397	0.0015135881
45	0xbcc702bc	-0.024293296
46	0x3cc85331	0.024453731
47	0xbc19a2fc	-0.009377237
48	0xbbe018e1	-0.0068389033
49	0xbb635a1b	-0.0034691158
50	0x3cd7f3e9	0.026361423
51	0xbb8214e0	-0.0039697737
52	0xbb837049	-0.004011188
53	0xbd1c1b59	-0.03811202
54	0xbb07ac4c	-0.0020702062
55	0xbc3566ca	-0.01107187
56	0xbc54f060	-0.012996763
57	0x3be7a515	0.00706924
58	0xbd1a4453	-0.037662815
59	0x3c0ce905	0.008600478
60	0x3c45378e	0.012037171
61	0xbd1e5a93	-0.038660597
62	0xbca8208d	-0.020523334
63	0xbb5a683a	-0.0033326284
64	0xbbb5006b	-0.0055237315
65	0xbbb2064c	-0.0054328796
66	0xbc2bb406	-0.010479933
67	0xbb88f7f9	-0.0041799513
68	0x3cf1f7ce	0.029537108
69	0xbb618f31	-0.0034417624
70	0x3c4612ca	0.012089441
71	0xbbcf2895	-0.0063219764
72	0xbb4390cb	-0.0029840942
73	0xbd66b805	-0.05632784
74	0xbb748c27	-0.0037314983
75	0x3c2d30b6	0.010570696
76	0xbc4da80b	-0.012552272
77	0x3c1e3e1c	0.009658363
78	0xbc695b7e	-0.014243005
79	0x3c29f69e	0.0103737395
80	0x3b80c83c	0.00393012
81	0xbc824765	-0.015903184
82	0xbb8028f2	-0.003911131
83	0xbc93f1bc	-0.018059604
84	0xbce68e43	-0.028144008
85	0xbd09192f	-0.033471283
86	0x3aa05bda	0.0012234405
87	0xbc1c1cda	-0.009528363
88	0xbc8a3073	-0.016868806
89	0xbb92a55c	-0.004475279
90	0xbb5ace43	-0.0033387102
91	0xbab43dbe	-0.0013751311
92	0x3bcc5ab7	0.0062364
93	0xbb905782	-0.004404963
94	0x3c34e291	0.011040346
95	0xbce36f40	-0.02776301
96	0xbc7d1dbb	-0.015448983
97	0xbb88b5a5	-0.0041720443
98	0x3cd36faf	0.02581009
99	0xbbbfbf14	-0.0058516357
100	0x3c3e1fdc	0.011604276
101	0xbb78243a	-0.003786339
102	0x3c814309	0.015779035
103	0xbc4469e9	-0.011988142
104	0xbb811590	-0.003939338
105	0xbb4e2fa2	-0.0031461497
106	0xbb69904a	-0.0035638981
107	0x3c644feb	0.01393507
108	0xbd0b2b09	-0.03397659
109	0xbbe62940	-0.0070239604
110	0xbbdaa79c	-0.0066728126
111	0xba813e72	-0.0009860529
112	0x3c562574	0.013070453
113	0xbd20ea09	-0.039285693
114	0xbb8da445	-0.004322561
115	0xbc5c0577	-0.013429037
116	0xbb8c8dee	-0.0042893803
117	0xbce48be9	-0.027898746
118	0xbc93ab52	-0.018026028
119	0xbd0d1ba1	-0.034450177
120	0xbb93e5ec	-0.004513493
121	0xbbe0dcc0	-0.006862253
122	0x3c8e63c1	0.01738155
123	0xbbd87cf4	-0.0066066924
124	0xba1c5f93	-0.00059651694
125	0x3c495cd1	0.012290196
126	0xbc1ebf62	-0.009689184
127	0xbbd50bab	-0.006501635

fc2.weight f4 [64, 128]
0	0xbcfe033c	-0.031007402
1	0xbc9cf160	-0.019158065
2	0xbc41eaf7	-0.011835805
3	0x373203bc	1.0610496e-05
4	0xbc8c6fe9	-0.017143207
5	0x3dc2bfe6	0.09509258
6	0x3a54c536	0.0008116545
7	0xbd9e75e1	-0.07737327
8	0xbdaf632f	-0.0856384
9	0x3dce0866	0.100601956
10	0xbbb49804	-0.0055112857
11	0x3d9b92e6	0.07596378
12	0xbac1c183	-0.0014782402
13	0x3dab88b2	0.08375682
14	0xbb8272a9	-0.0039809537
15	0xba92dc17	-0.0011204508
16	0xbb6f6940	-0.003653124
17	0x3d995d91	0.074885495
18	0x3e5edc83	0.21763806
19	0xbc6f3e9c	-0.01460233
20	0x3e0d6d33	0.13811187
21	0xbcece7c0	-0.0289191
22	0xbd9d586d	-0.076828815
23	0xbaac6f1c	-0.0013155672
24	0xbad220c6	-0.0016031496
25	0x3d02ed8c	0.031964824
26	0x3e13ae63	0.14421992
27	0x3ccd90cd	0.02509346
28	0x3c009006	0.007846838
29	0xbc8f0457	-0.017458124
30	0xbac2d2e5	-0.0014863877
31	0xbc9fc9a3	-0.019505328
32	0x3a43a8ee	0.0007463832
33	0xbd56d59d	-0.05244981
34	0x38a0ea62	7.673052e-05
35	0x3be15b09	0.0068773073
36	0xbbd95a21	-0.0066330587
37	0xbca25077	-0.01981376
38	0xbac78481	-0.0015221984
39	0xbca0daa0	-0.019635499
40	0xbd89373a	-0.06699987
41	0xbdb62e56	-0.08895557
42	0x3e3ee2f2	0.1864126
43	0xbd519906	-0.051171325
44	0x3d99a19e	0.07501529
45	0x3dd1ce0f	0.10244381
46	0x3ce53e1e	0.027983721
47	0xbc1abdd9	-0.009444677
48	0xbcef0197	-0.029175563
49	0xbb1d6af6	-0.0024020053
50	0x3e73be1e	0.23802993
51	0xba78cd8f	-0.000949108
52	0xbaa925d1	-0.0012904947
53	0x3d86a65d	0.065747
54	0xbd1d09a6	-0.03833928
55	0x3d7a7b6d	0.061152864
56	0x3c99b036	0.018760782
57	0x3d82584e	0.06364499
58	0xbcb45363	-0.022012418
59	0xbc6336c7	-0.01386804
60	0xbd18100d	-0.037124682
61	0xbcaf1351	-0.021371515
62	0xbda90eda	-0.08254786
63	0xba7dd4e6	-0.00096829084
64	0xba9d659f	-0.0012008435
65	0xbd0fe6af	-0.035132106
66	0xbd0594ae	-0.032612495
67	0xba5d7c49	-0.0008449001
68	0xbd191d53	-0.03738148
69	0xbaf54a60	-0.0018714182
70	0xbd09df57	-0.03366026
71	0x3d7df0ec	0.06199734
72	0x3d832cc6	0.06405024
73	0xbcbd13de	-0.023080762
74	0xbac5ec97	-0.0015100416
75	0xbc7b9c91	-0.015357153
76	0x3db8352d	0.089945175
77	0x3e7256fc	0.23665994
78	0x3e75bd22	0.2399793
79	0xbc5e134a	-0.013554404
80	0x3db10c9b	0.086449824
81	0xbb9ccdae	-0.004785261
82	0xbb13a02e	-0.0022525894
83	0xbd07fd65	-0.03320064
84	0xbb7c6e45	-0.0038517874
85	0xbce4b837	-0.027919872
86	0x3d46af80	0.048507214
87	0x382bbf44	4.0947707e-05
88	0x3d0d10c0	0.034439802
89	0x3a10a9d3	0.000551847
90	0xb931fa05	-0.00016973175
91	0xbc85bc79	-0.016325222
92	0xbcbf6d6e	-0.02336761
93	0xbb3477d5	-0.0027537246
94	0xbe33fe22	-0.17577413
95	0x3dfacc40	0.12245989
96	0xbd06d620	-0.03291905
97	0xb8c3fde2	-9.345614e-05
98	0x3d38837a	0.04504726
99	0xbc715271	-0.014729128
100	0x3d38fe96	0.045164667
101	0xbb1cd365	-0.0023929712
102	0x3a1cec80	0.0005986169
103	0xbc87642c	-0.016527258
104	0xbb3e05fa	-0.0028995262
105	0xbae025fc	-0.0017101164
106	0xbac7e724	-0.001525138
107	0xbccf83bc	-0.02533137
108	0xbd82947e	-0.06375979
109	0xbb6ca3fa	-0.003610848
110	0x3c831cd5	0.01600496
111	0xbbaa83a4	-0.005203681
112	0xbd9a96af	-0.07548272
113	0xbde094cd	-0.109658815
114	0xbacb2fb3	-0.0015501886
115	0xbc41c551	-0.011826829
116	0xbad4abf3	-0.0016225561
117	0x3cdfb09a	0.02730589
118	0x3e14a550	0.14516187
119	0x3dc86b29	0.09786064
120	0xba9b4955	-0.0011847416
121	0xbca09e4b	-0.01960673
122	0x3de7ae97	0.11312597
123	0xbd1392d4	-0.036028698
124	0x3c8d7b19	0.017270612
125	0xbb9a10fd	-0.004701732
126	0xbcf30aa2	-0.029668156
127	0xbd2f0e7e	-0.04273843
128	0x3e40310a	0.18768707
129	0x3e3d0726	0.18459758
130	0xbdbeb6c4	-0.093122035
131	0x3af8351c	0.0018936726
132	0x3b8cbc7a	0.004294929
133	0xbb97ada2	-0.004628853
134	0xba041f49	-0.0005040062
135	0xbd5da33a	-0.054110743
136	0x3d70dab6	0.05880233
137	0x3d1303f7	0.035892453
138	0x3cc6c0ab	0.024261793
139	0x3d949f0b	0.072568975
140	0xbac0b81e	-0.0014703309
141	0x3e015625	0.12630518
142	0x3a2275c0	0.00061973557
143	0xba4a2897	-0.0007711737
144	0x393a460b	0.00017764435
145	0x3e2c3089	0.1681539
146	0x3db8d28d	0.090245344
147	0xbdd2a869	-0.10286028
148	0x3d64e329	0.0558807
149	0x3b0363fd	0.0020048611
150	0xbc99dd9c	-0.01878243
151	0xbae866a7	-0.0017730788
152	0x39f7ffbf	0.00047302057
153	0x3d3996f1	0.045309965
154	0x3d8422d9	0.06451959
155	0x3d630e5b	0.055433612
156	0x3d98cad7	0.07460564
157	0xbd1d9d91	-0.038480345
158	0xbb02aa45	-0.0019937914
159	0xbb687562	-0.0035470356
160	0xba14c85b	-0.0005675607
161	0xbccd88d1	-0.025089653
162	0xbab0ffc0	-0.0013503954
163	0xbc26675c	-0.010156479
164	0x3abf272b	0.0014583817
165	0xbcc08fc4	-0.023506053
166	0xbb179797	-0.0023131126
167	0x3d32a180	0.04361105
168	0x3ce5dc82	0.028059248
169	0xbc534315	-0.012894412
170	0x3d7294d3	0.05922396
171	0xbca21c1e	-0.019788798
172	0x3d521c1c	0.05129634
173	0x3d8732f9	0.06601519
174	0x3d3058c4	0.043053403
175	0x3dc676ce	0.09690629
176	0x3d8eca13	0.06972136
177	0xb99406f1	-0.00028233932
178	0x3dac5633	0.08414879
179	0xb9ef731c	-0.00045671395
180	0xba5f9ff9	-0.00085306127
181	0xbb6179e7	-0.0034404935
182	0x3ba5e54b	0.0050627342
183	0x3d89fa2e	0.06737171
184	0x3b75abd1	0.0037486444
185	0xbc95ad11	-0.018271001
186	0xbcb55f46	-0.022140156
187	0xbdb500f4	-0.088380724
188	0x3d1cba26	0.038263462
189	0x3e1a791e	0.15085265
190	0x3da10d2f	0.07863843
191	0xb948a00f	-0.00019133113
192	0xbb0e6a7c	-0.002173095
193	0xbab069ed	-0.0013459303
194	0x3ddb7942	0.107164875
195	0x39a51c4d	0.00031492338
196	0xbce36d71	-0.027762147
197	0xbaaa6e1b	-0.0013002785
198	0xbca5efa6	-0.020255875
199	0x3d9f0c6a	0.0776604
200	0x3d35ad1e	0.04435455
201	0x3dadcbc3	0.0848613
202	0xb8a3b580	-7.806253e-05
203	0xbd2eb8ea	-0.042656817
204	0x3d4bfff3	0.04980464
205	0x3dc906b7	0.09815734
206	0x3d68f551	0.056874577
207	0x3e46f8d7	0.19430862
208	0x3d60d2cd	0.054888535
209	0x3befd186	0.0073186783
210	0xba897833	-0.0010488093
211	0x3ddb99cf	0.10722696
212	0x3e19d4cb	0.1502258
213	0xbbc759dc	-0.00608371
214	0xbd092f9c	-0.03349267
215	0xbcf96aef	-0.030446498
216	0x3ce3a166	0.027786922
217	0x39fe2ed6	0.0004848155
218	0x38f2004d	0.00011539515
219	0xba16d849	-0.0005754275
220	0x3cb2762d	0.021784866
221	0xba5fd400	-0.00085383654
222	0xbd2d4d1e	-0.042309873
223	0x3d990260	0.07471156
224	0xbc015b29	-0.007895269
225	0xb984944d	-0.00025287495
226	0x3db06780	0.08613491
227	0x3d97c802	0.07411195
228	0xbadc0100	-0.0016784966
229	0x3a06bb44	0.0005139599
230	0xbd06c49b	-0.03290234
231	0xbc785aa0	-0.015158325
232	0x3979971c	0.00023802783
233	0xba45959e	-0.00075372483
234	0x3aa867f6	0.0012848366
235	0x3b39a754	0.0028328495
236	0xbc094bb5	-0.008379866
237	0x3b472a5e	0.0030390243
238	0xbc583ff5	-0.013198842
239	0x3ab453cf	0.0013757887
240	0xbc7a3ecf	-0.015273764
241	0xbd872f35	-0.06600801
242	0xbaac91a3	-0.0013165962
243	0x3d859e62	0.0652435
244	0x3a2cb1c7	0.000658777
245	0xbc97bfc2	-0.018524054
246	0x3c8531a6	0.016259026
247	0x3e266c0d	0.16252156
248	0xbaf471aa	-0.0018649597
249	0x3d08cd6d	0.033399034
250	0x3dadac40	0.0848012
251	0x3d652666	0.055944823
252	0x3ba1cb3f	0.004937559
253	0x3e3f5a53	0.186868
254	0x3d398749	0.045295034
255	0xbb59fe39	-0.00332631

fc2.bias f4 [64]
0	0xbb987a69	-0.0046532643
1	0xbc9a0363	-0.018800443
2	0x3c3b97ef	0.011449798
3	0xbdb6d08f	-0.08926498
4	0xbd8a3aeb	-0.06749519
5	0x3d9b8ee9	0.07595617
6	0xbcb38175	-0.021912316
7	0x3e130a2c	0.14359349
8	0xbcbb6d65	-0.022879312
9	0xbd1cfda2	-0.03832782
10	0xbdbb1b6c	-0.0913609
11	0xbd4e2adf	-0.050333854
12	0xbd4c3e53	-0.049864125
13	0xbc1d0633	-0.009583998
14	0xbb761d31	-0.003755402
15	0x3deccacc	0.11562118
16	0xbbce04a2	-0.0062871734
17	0xbc218506	-0.009858375
18	0x3da6b21e	0.08139442
19	0xbde1c2dc	-0.110234946
20	0x3cf2f90f	0.029659776
21	0xbc92655e	-0.017870601
22	0xbd09caaf	-0.03364056
23	0x3c3ed313	0.011647004
24	0x3cad0d84	0.021124609
25	0x3e1791bd	0.14801688
26	0xbd0a5409	-0.03377155
27	0xbdc0b474	-0.09409419
28	0x3bc240a0	0.005928114
29	0x3df8dd55	0.12151591
30	0xbd4a5a70	-0.049402654
31	0x3d759d65	0.059964556
32	0x3db6afaf	0.08920228
33	0x3d062bcf	0.032756623
34	0x3b436f5d	0.0029821016
35	0x3d830ac7	0.0639854
36	0x3d1f071f	0.03882515
37	0x3d7bf30b	0.06151108
38	0xbd970bf3	-0.07375326
39	0xbd80b4a5	-0.06284455
40	0xbd4ca03a	-0.04995749
41	0xbd377e53	-0.044798207
42	0x3cc6f469	0.024286466
43	0xbd4d8ebc	-0.05018495
44	0x3d687412	0.05675132
45	0xbd8cb537	-0.068705015
46	0xbd8a26e1	-0.06745697
47	0x3cf21d2b	0.029554924
48	0xbd1ae280	-0.037813663
49	0xbc0518cd	-0.008123589
50	0xbd0df651	-0.034658734
51	0xbc4719e4	-0.012152169
52	0xbd3ca240	-0.04605317
53	0x3cf33fe7	0.029693557
54	0xbd802fd5	-0.06259123
55	0xbb1fefc3	-0.0024404384
56	0xbce48fda	-0.027900625
57	0xbdcfe3b7	-0.10150855
58	0x3abcb516	0.001439723
59	0x3d0ca6be	0.034338705
60	0xbd11823e	-0.0355246
61	0xbcb0ed49	-0.021597521
62	0xbd12b849	-0.03582028
63	0x3cc6a5ed	0.024249041

fc3.weight f4 [32, 64]
0	0xbe98c0dd	-0.29834643
1	0xbd1eec51	-0.038799588
2	0x3def3dc1	0.116817005
3	0xbde6e28e	-0.112736806
4	0x3ccf02b3	0.025269842
5	0x3e602033	0.21887283
6	0xbe8729b8	-0.26399016
7	0x3d1898eb	0.03725521
8	0xbe3e9135	-0.1861008
9	0xbe4228e6	-0.18960914
10	0xbc4426ee	-0.011972172
11	0xbdccb38b	-0.099951826
12	0x3c0a141a	0.008427644
13	0x3dae1f6a	0.085020855
14	0x3d9e1342	0.07718517
15	0xbc66ed43	-0.014094654
16	0xbd4c15c3	-0.04982544
17	0xbe5b6dc0	-0.21428585
18	0x3e032d10	0.12810159
19	0xbd5baec6	-0.053633474
20	0x3d5a3d91	0.05328137
21	0xbe80f607	-0.25187704
22	0x3c492d97	0.012278936
23	0xbd05c04b	-0.032654088
24	0x3cc5afb7	0.024131639
25	0xbce84c96	-0.028356832
26	0x3e3176dc	0.17330498
27	0xbd2f3865	-0.04277839
28	0xbe9f79c0	-0.31147575
29	0x3be24a42	0.006905825
30	0x3db80157	0.089846306
31	0xbabdb8d3	-0.0014474638
32	0x3d16c5c9	0.036809716
33	0xbe1ada01	-0.15122224
34	0x3d7cbd3c	0.061703905
35	0xbea61f70	-0.3244586
36	0x3e929107	0.28626272
37	0x3de1a9b3	0.11018696
38	0x3dade39f	0.08490681
39	0x3d66eb23	0.056376588
40	0x3caca2a5	0.021073649
41	0xbd84b0dc	-0.06479046
42	0xbe6f3caf	-0.23362993
43	0x3e2bf295	0.16791756
44	0x3dd6c1cf	0.10486185
45	0xbd3aecab	-0.04563586
46	0xbd04e04e	-0.032440476
47	0x3d42dd84	0.047574535
48	0x3e31487c	0.17312807
49	0x3d84ace4	0.06478289
50	0x3e241b00	0.16025925
51	0xbbaeb1f4	-0.0053312723
52	0x3c8fc8be	0.017551776
53	0x3e4093a9	0.18806328
54	0xbd3916e6	-0.045187853
55	0xbdb792fb	-0.08963581
56	0xbc665302	-0.014057877
57	0xbd677a60	-0.05651319
58	0xbe494901	-0.19656755
59	0x3bbfa1ea	0.005848159
60	0x3d8c7da2	0.068599
61	0xbda7fa89	-0.08202083
62	0xbdc0d0e6	-0.09414844
63	0xbea21840	-0.31659126
64	0x3eacf6cf	0.3378205
65	0x3c2741ab	0.010208528
66	0xbcd755b3	-0.026285982
67	0xbcb16280	-0.021653414
68	0xbd800034	-0.06250039
69	0xbe1ea4c9	-0.15492548
70	0x3e97e9c2	0.2967053
71	0x3dc17456	0.094460174
72	0x3ea9c971	0.331615
73	0x3e978ca0	0.29599476
74	0x3c052c64	0.008128259
75	0x3cf7e5a5	0.03026087
76	0xbdc453f5	-0.09586326
77	0x3e6eaca7	0.23308049
78	0xbd8946aa	-0.06702931
79	0x3d996941	0.07490779
80	0xbd7775cd	-0.060415078
81	0x3e203f1e	0.15649077
82	0xbd2ca8e0	-0.04215324
83	0x3c38fd94	0.0112909265
84	0xbe9b4fd0	-0.3033433
85	0x3e9b1d66	0.30295867
86	0xbe491a72	-0.19638994
87	0xbb16754f	-0.0022958105
88	0xbd08976d	-0.033347536
89	0x3cdc538f	0.026895313
90	0xbd7144c6	-0.058903478
91	0x3b250380	0.0025179088
92	0x3eae898d	0.34089318
93	0xbcf8320b	-0.0302973
94	0xbe21cee1	-0.15801574
95	0x3dba01c9	0.09082372
96	0x3d06f574	0.032948926
97	0x3ebd185c	0.36932647
98	0x3cc37d9f	0.023863612
99	0x3e8c7131	0.27430108
100	0xbe80b2ff	-0.25136563
101	0x3d3168b7	0.043312754
102	0xbdff3337	-0.1246094
103	0xbaa3f6d1	-0.001250947
104	0xbdfb7cea	-0.12279685
105	0xbd28dce1	-0.04122627
106	0x3ed47f02	0.4150315
107	0xbe88cf8b	-0.26720843
108	0xbdfc7f5a	-0.12328978
109	0x3bb58cb3	0.0055404543
110	0xbd404a65	-0.04694595
111	0x3ddbadd5	0.10726515
112	0xbe9e6f61	-0.3094435
113	0xbdf28b33	-0.118429564
114	0xbc845d26	-0.016157698
115	0x3dda7b31	0.10668028
116	0xbd60a302	-0.054842956
117	0xbe846653	-0.25859317
118	0xbd426c55	-0.047466595
119	0xbcf2e946	-0.029652249
120	0x3dd46eff	0.10372733
121	0xbd36a84f	-0.044594105
122	0x3e471c82	0.19444469
123	0xbda5e711	-0.08100713
124	0xbd83426a	-0.06409152
125	0x3e08ca9b	0.13358538
126	0x3bdec546	0.006798419
127	0x3ea947d5	0.33062616
128	0x3ce26f22	0.027640883
129	0x3da9679b	0.08271714
130	0x3d52eff0	0.051498353
131	0xbca4bbf6	-0.020109158
132	0x3e1f4c6c	0.15556496
133	0x3e81f876	0.25384873
134	0xbda15d55	-0.0787913
135	0xbe0e00e0	-0.13867521
136	0x3d83556d	0.06412778
137	0x3d47a6e6	0.04874315
138	0x3e7772d7	0.24164902
139	0x3e19299d	0.1495728
140	0xbe5839e9	-0.21115841
141	0x3e50e009	0.20397963
142	0x3e0fc13f	0.14038561
143	0xbe18a613	-0.14907102
144	0xbc9da0fa	-0.019241799
145	0xbdaca25c	-0.08429405
146	0x3c61cf0b	0.013782273
147	0x3e76b1cf	0.24091266
148	0x3d8595d2	0.065227166
149	0x3d725cc3	0.059170496
150	0xbe359305	-0.17731865
151	0x3d613aeb	0.05498783
152	0xbe84c08b	-0.2592815
153	0xbe0424b6	-0.12904629
154	0x3e3e6183	0.18591885
155	0x3e74fb0f	0.23923896
156	0x3d5c0375	0.053714234
157	0xbe4227e3	-0.18960528
158	0xbcda15d4	-0.026621737
159	0xbdfcd0f0	-0.12344539
160	0x3c1847cd	0.009294462
161	0x3cbee1a4	0.023300953
162	0xbe2344e0	-0.15944242
163	0xbdac8e86	-0.08425622
164	0x3e4e78d7	0.20163284
165	0xba646dfa	-0.00087138976
166	0xbe12f5cf	-0.14351581
167	0x3e8f7b5a	0.28023797
168	0xbd14bf49	-0.036315236
169	0x3d6e430b	0.058169406
170	0x3d713ceb	0.058895987
171	0x3ced9752	0.02900282
172	0x3e38c76c	0.18044823
173	0x3e47be40	0.19506168
174	0x3d8cc5a2	0.06873633
175	0xbd7bd8c7	-0.06148603
176	0x3e3ca79c	0.18423313
177	0xbd3b1d35	-0.04568215
178	0x3e13441c	0.1438145
179	0x3d6023fa	0.05472181
180	0x3e728a20	0.23685503
181	0x3e120ee6	0.14263496
182	0x3da07954	0.078356415
183	0x3d8c258a	0.068430975
184	0x3afad5c0	0.0019137189
185	0xbe294f5e	-0.16534182
186	0x3dc94795	0.09828106
187	0x3db0e1af	0.08636796
188	0x3e0a1a3b	0.13486569
189	0xba0d10a0	-0.00053812005
190	0x3e206bf1	0.15666176
191	0xbde7b14b	-0.11313113
192	0xbeaa2292	-0.332295
193	0xbe06db73	-0.1316965
194	0xbd9c592a	-0.07634194
195	0xbcc20fad	-0.023689115
196	0xbdab0e24	-0.083523065
197	0x3e35af6b	0.17742698
198	0xbeacf580	-0.33781052
199	0x3e4cdaa6	0.20005283
200	0xbe576daf	-0.21037935
201	0xbe872299	-0.26393583
202	0x3e76716d	0.24066706
203	0x3e11df76	0.142454
204	0x3dbfe474	0.09369746
205	0xbe27acf6	-0.16374573
206	0x3d77dfd2	0.060516186
207	0x3db69ea9	0.08916981
208	0xbe1d839a	-0.15382233
209	0xbe26f1e9	-0.16303219
210	0xbced9304	-0.029000767
211	0x3e492260	0.1964202
212	0xbd495f11	-0.049162928
213	0xbe295d26	-0.1653944
214	0x3df6e859	0.120560355
215	0x3df46ae0	0.11934447
216	0x3df927bc	0.12165782
217	0xbc9b55fc	-0.018961899
218	0x3d1b8681	0.03797007
219	0x3e202441	0.1563883
220	0xbe228a5e	-0.15873095
221	0x3d967377	0.07346242
222	0x3e8c8573	0.27445564
223	0x3e03556b	0.12825553
224	0x3dc8cb13	0.09804358
225	0xbe1a3804	-0.15060431
226	0xbd5c06a2	-0.053717263
227	0xbea41cd9	-0.3205326
228	0x3d169871	0.036766473
229	0x3dfe8771	0.12428177
230	0x3e0ceab5	0.13761409
231	0x3c15830d	0.009125483
232	0x3e57acaf	0.21061967
233	0x3e09faf7	0.13474642
234	0xbe50cd07	-0.20390712
235	0x3d6fed0a	0.058575667
236	0x3e34ec24	0.17668205
237	0x3e455d04	0.19273764
238	0xbdfb8ce2	-0.12282731
239	0x3cb4eb3b	0.022084823
240	0x3e39ae1c	0.18132824
241	0xbdcdfc03	-0.10057833
242	0xbddae3c0	-0.10687971
243	0xbdb4d8f3	-0.08830442
244	0xbd4ba3dd	-0.04971682
245	0x3e37c83d	0.17947479
246	0x3d2ef026	0.042709492
247	0x3d84da4c	0.06486949
248	0xbeb11dd5	-0.34593073
249	0xbd173ab5	-0.03692122
250	0xbe82d2ad	-0.25551358
251	0x3cc9e689	0.02464606
252	0xbe0b79c5	-0.1362067
253	0xbc8e3144	-0.017357476
254	0x3e4d7304	0.20063406
255	0xbe8cb2e4	-0.27480233

fc3.bias f4 [32]
0	0x3d9b278c	0.07575902
1	0x3de5b7aa	0.11216672
2	0x3dbb670c	0.09150514
3	0xbd34275c	-0.04398285
4	0x3dda1404	0.10648349
5	0x3e1db12d	0.15399618
6	0xbbb38341	-0.005478293
7	0x3d443e11	0.047910754
8	0x3de3844b	0.11109217
9	0xbe11ee96	-0.1425117
10	0x3d8a7ecc	0.06762466
11	0x3e289d64	0.1646629
12	0x3d06d9b2	0.032922454
13	0x3cc75949	0.024334567
14	0x3d138eda	0.036024906
15	0x3dd114ad	0.10209022
16	0x3cc7b884	0.024379976
17	0x3d8671f0	0.065647006
18	0xbd0a2417	-0.033725824
19	0x3e763636	0.24044117
20	0x3e2871fe	0.16449735
21	0x3dbbdf4e	0.09173451
22	0x3a497b72	0.0007685936
23	0x3c8d783e	0.01726925
24	0x3cd26d53	0.025686895
25	0xbd1a9fbe	-0.03775
26	0x3b03b01e	0.0020093988
27	0xbcd4c480	-0.025972605
28	0x3cfa9555	0.030588785
29	0x3d194544	0.037419572
30	0xbc13ebc6	-0.009028381
31	0x3e04f864	0.12985379

fc4.weight f4 [6, 32]
0	0xbef1e4ff	-0.47245023
1	0xbf0b5239	-0.54422337
2	0xbeb0b1be	-0.34510607
3	0xbe8ccde2	-0.27500826
4	0xbdfadd63	-0.122492574
5	0xbf366b82	-0.71257794
6	0xbe54cf4c	-0.20782202
7	0x3d9fe6f3	0.07807722
8	0xbecd512f	-0.40101
9	0xbeadb902	-0.33930212
10	0x3d6682e2	0.056277163
11	0xbf433dc6	-0.76266134
12	0x3c3338fe	0.010938881
13	0xbc8ce192	-0.017197404
14	0x3dd19f8b	0.102355085
15	0xbe90a1d6	-0.2824847
16	0x3db615b5	0.08890859
17	0xbf02c522	-0.5108205
18	0x3e6d1250	0.23151517
19	0xbf09f591	-0.5389033
20	0x3e210b1a	0.15726891
21	0x3e7a6a51	0.24454619
22	0x3dada4c9	0.08478696
23	0x3d965f53	0.073424004
24	0x3dc4b4a9	0.09604771
25	0xbee32044	-0.44360554
26	0xbed8007a	-0.42187864
27	0xbea84f5b	-0.32873043
28	0x3e5868b1	0.21133687
29	0x3e181bea	0.14854398
30	0x3e5d4bb1	0.21610905
31	0x3bbd722e	0.0057814335
32	0x3e01f459	0.12690867
33	0xbf108852	-0.5645801
34	0x3dc0ba50	0.09410536
35	0xbf0d03fc	-0.55084205
36	0xbd1691ef	-0.036760267
37	0xbf529dc4	-0.8227198
38	0xbe75157e	-0.2393398
39	0xbe9c643e	-0.3054523
40	0x3cd2f6f4	0.025752522
41	0xbed6c7cb	-0.41949305
42	0x3dbbe133	0.09173813
43	0xbf3768a7	-0.7164406
44	0xbee41b86	-0.4455225
45	0xbeec6f61	-0.46178725
46	0x3e1718c6	0.14755544
47	0x3e7ee862	0.24893335
48	0x3e4f7c9e	0.20262381
49	0x3def04eb	0.1167086
50	0xbed80bae	-0.4219641
51	0xbf1d7ea2	-0.6152135
52	0x3e54828d	0.20752926
53	0xbe336dc4	-0.17522341
54	0x3e1a2295	0.15052254
55	0xbebca399	-0.36843565
56	0xbebbd24b	-0.36683878
57	0x3ec965c2	0.39335448
58	0xbe0475b3	-0.12935524
59	0x3e1c872f	0.15285943
60	0xbee86577	-0.45389912
61	0xbeab59de	-0.33467
62	0xbf0072ff	-0.5017547
63	0xbccea7a0	-0.025226414
64	0xbe020718	-0.12698019
65	0xbe83c561	-0.25736526
66	0x3e0f3a0c	0.13986987
67	0x3e0ef7c1	0.13961698
68	0xbf25b2fe	-0.64726245
69	0xbf07080e	-0.52746665
70	0x3eb14df3	0.34629783
71	0xbec1c20b	-0.37843356
72	0xbf09d593	-0.53841513
73	0x3e5b28e2	0.21402314
74	0xbec32c24	-0.38119614
75	0xbf10af97	-0.5651793
76	0xbf09fe0b	-0.53903264
77	0xbc0752ba	-0.00825947
78	0x3d7b7dfe	0.061399452
79	0x3e2f6964	0.17130047
80	0x3e0e06e6	0.13869819
81	0x3da0ff04	0.0786114
82	0x3e296444	0.16542155
83	0xbef4e7b7	-0.47833034
84	0x3d006f5a	0.031356193
85	0x3e5c6605	0.21523292
86	0xbea28fc3	-0.31750306
87	0x3e247473	0.16060047
88	0x3d13ca02	0.03608132
89	0xbe6d96c6	-0.23202047
90	0x3e27fe13	0.16405515
91	0x3de616fc	0.11234853
92	0xbe849514	-0.25894988
93	0xbe46e01d	-0.1942143
94	0x3d59e3ec	0.05319588
95	0xbf0deb4d	-0.55437165
96	0xbeb4e4e4	-0.3533088
97	0x3e1462eb	0.14490859
98	0xbf1a9633	-0.60385436
99	0xbe8558eb	-0.26044402
100	0x3e1f7ea9	0.15575661
101	0x3e100762	0.14065316
102	0xbd33285c	-0.04373966
103	0x3e67b86f	0.2262895
104	0x3e11ea07	0.1424943
105	0xbe658037	-0.22412191
106	0x3da4249e	0.08014797
107	0x3e0fd9c3	0.14047913
108	0x3e156ae9	0.14591564
109	0xbf161306	-0.5862278
110	0xbefd0984	-0.49421322
111	0xbe9c35fc	-0.30509937
112	0xbf391e8d	-0.7231224
113	0x3d7cc987	0.06171563
114	0xbeea8513	-0.45804653
115	0x3e25a340	0.16175556
116	0xbefaf56b	-0.49015364
117	0xbf1a7f9a	-0.60350955
118	0xbcc15c7b	-0.023603668
119	0xbf001566	-0.5003265
120	0xbea58f2b	-0.3233579
121	0xbe4184c4	-0.18898302
122	0xbeb419a6	-0.35175818
123	0xbf0f7889	-0.560433
124	0xbe899926	-0.26874655
125	0xbede821c	-0.4345864
126	0xbf00a9ab	-0.5025889
127	0x3ddee892	0.10884203
128	0x3e76a90d	0.24087925
129	0xbe889592	-0.26676613
130	0xbf2b6cef	-0.66963094
131	0x3e51b234	0.20478135
132	0x3e1b6731	0.15176083
133	0x3ddfb20b	0.10922631
134	0xbe30ec15	-0.17277558
135	0xbeb74d59	-0.358012
136	0x3e0bc8de	0.13650844
137	0xbe3bddbc	-0.18346304
138	0xbf103304	-0.56327844
139	0x3de22b42	0.11043407
140	0xbecea73b	-0.40361962
141	0xbf0c9f6f	-0.54930776
142	0xbf22b6b2	-0.6356002
143	0x3e7b4751	0.24538924
144	0xbeab8a83	-0.33504114
145	0xbf0dbc55	-0.55365497
146	0x3c19ba14	0.009382743
147	0x3e26eb2c	0.16300648
148	0x3dc5fede	0.09667753
149	0xbdeec1dc	-0.116580695
150	0xbf25033a	-0.6445805
151	0xbf007820	-0.50183296
152	0x3e96c204	0.29444897
153	0xbea810a6	-0.32825202
154	0xbe99e075	-0.3005406
155	0x3d8c4032	0.06848182
156	0xbeb7e237	-0.35914776
157	0xbf0323a1	-0.5122624
158	0x3e2161b3	0.15759926
159	0x3df0ba75	0.11754314
160	0xbe97bf3a	-0.29638082
161	0x3ded577c	0.11588952
162	0xbbbe5196	-0.0058080656
163	0xbea70d77	-0.3262746
164	0xbf1020f1	-0.56300265
165	0xbe3d72c4	-0.18500811
166	0xbdcb48ce	-0.09925996
167	0x3e6ca0a6	0.23108158
168	0xbef4923b	-0.47767815
169	0x3ece3dc9	0.40281513
170	0x3dec9e06	0.11553578
171	0xbcedd7a2	-0.029033486
172	0x3e1c6db4	0.15276223
173	0xbd0c8b1a	-0.034312345
174	0x3d8febbd	0.070273854
175	0xbed5c27b	-0.4174994
176	0xbebe6cd5	-0.37192407
177	0x3dd341b0	0.10315263
178	0xbf09f00d	-0.53881913
179	0xbf3627b7	-0.7115435
180	0xbf21e3a0	-0.63237953
181	0xbef36f11	-0.47545674
182	0x3d1adf46	0.037810586
183	0x3e34e6c2	0.17666152
184	0xbf2b10d7	-0.6682257
185	0xbe5c23c0	-0.21498013
186	0x3eb937ba	0.36175328
187	0xbedd3696	-0.43205708
188	0x3e98044d	0.2969078
189	0x3dc2cef7	0.09512132
190	0xbf1494ae	-0.5803937
191	0xbf4472de	-0.76737773

fc4.bias f4 [6]
0	0xbcb62657	-0.022235079
1	0xbd96814f	-0.073488824
2	0xbe9d83ee	-0.30764717
3	0x3e213981	0.15744592
4	0x3cd36e40	0.025809407
5	0xbf0ca3c7	-0.54937404
